…
          [-0.3454,  0.9999, -0.9607,  ...,  0.5649,  0.9933,  0.9972]],

         [[ 0.9217, -0.2282, -0.8024,  ..., -0.3979, -0.8505,  0.0991],
          [ 0.9853,  0.4766,  0.9856,  ...,  0.1772,  0.8178,  0.8956],
          [ 0.9489, -0.3349,  0.9638,  ..., -0.9977,  0.9948,  0.7268],
          ...,
          [ 0.9981,  0.9775, -0.9481,  ..., -1.0000,  1.0000,  0.9989],
          [ 0.9903, -0.9981, -0.9993,  ..., -0.9991, -0.9657, -0.9973],
          [-0.3125, -0.9996, -0.9709,  ..., -0.9854, -0.9500, -0.9977]]]],
       grad_fn=<TanhBackward0>) HiddenEncoder(
  (conv_bns): Sequential(
    (0): ConvBNRelu(
      (layers): Sequential(
        (0): Conv2d(3, 64, kernel_size=(3, 3), stride=(1, 1), padding=(1, 1))
        (1): BatchNorm2d(64, eps=0.001, momentum=0.1, affine=True, track_running_stats=True)
        (2): GELU(approximate='none')
      )
    )
    (1): ConvBNRelu(
      (layers): Sequential(
        (0): Conv2d(64, 64, kernel_size=(3, 3), stride=(1, 1), padding=(1, 1))
        (1): BatchNorm2d(64, eps=0.001, momentum=0.1, affine=True, track_running_stats=True)
        (2): GELU(approximate='none')
      )
    )
    (2): ConvBNRelu(
      (layers): Sequential(
        (0): Conv2d(64, 64, kernel_size=(3, 3), stride=(1, 1), padding=(1, 1))
        (1): BatchNorm2d(64, eps=0.001, momentum=0.1, affine=True, track_running_stats=True)
        (2): GELU(approximate='none')
      )
    )
    (3): ConvBNRelu(
      (layers): Sequential(
        (0): Conv2d(64, 64, kernel_size=(3, 3), stride=(1, 1), padding=(1, 1))
        (1): BatchNorm2d(64, eps=0.001, momentum=0.1, affine=True, track_running_stats=True)
        (2): GELU(approximate='none')
      )
    )
  )
  (after_concat_layer): ConvBNRelu(
    (layers): Sequential(
      (0): Conv2d(115, 64, kernel_size=(3, 3), stride=(1, 1), padding=(1, 1))
      (1): BatchNorm2d(64, eps=0.001, momentum=0.1, affine=True, track_running_stats=True)
      (2): GELU(approximate='none')
    )
  )
  (final_layer): Conv2d(64, 3, kernel_size=(1, 1), stride=(1, 1))
  (tanh): Tanh()
)
PSNR: 33.8420788158495
Message: 111010110101000001010111010011010100010000100111
Decoded: 111010110101000001010111010011010100010000100111
Bit Accuracy: 1.0
